…
--------------------------------------------------------------------------------


CartPoleNetwork(
  (ffnn1): Linear(in_features=4, out_features=128, bias=True)
  (ffnn2): Linear(in_features=128, out_features=128, bias=True)
  (ffnn3): Linear(in_features=128, out_features=128, bias=True)
  (ffnn4): Linear(in_features=128, out_features=2, bias=True)
  (value): Linear(in_features=128, out_features=1, bias=True)
)



----------------------------------------------------------------
        Layer (type)               Output Shape         Param #
================================================================
            Linear-1              [-1, 64, 128]             640
            Linear-2              [-1, 64, 128]          16,512
            Linear-3              [-1, 64, 128]          16,512
            Linear-4                [-1, 64, 2]             258
            Linear-5                [-1, 64, 1]             129
================================================================
Total params: 34,051
Trainable params: 34,051
Non-trainable params: 0
----------------------------------------------------------------
Input size (MB): 0.00
Forward/backward pass size (MB): 0.19
Params size (MB): 0.13
Estimated Total Size (MB): 0.32
----------------------------------------------------------------



Steps: 11
Steps: 12
…
