…
  (ffnn1): Linear(in_features=2, out_features=128, bias=True)
  (ffnn2): Linear(in_features=128, out_features=256, bias=True)
  (ffnn3): Linear(in_features=256, out_features=512, bias=True)
  (ffnn4): Linear(in_features=512, out_features=256, bias=True)
  (ffnn5): Linear(in_features=256, out_features=3, bias=True)
  (value): Linear(in_features=256, out_features=1, bias=True)
)



----------------------------------------------------------------
        Layer (type)               Output Shape         Param #
================================================================
            Linear-1              [-1, 32, 128]             384
            Linear-2              [-1, 32, 256]          33,024
            Linear-3              [-1, 32, 512]         131,584
            Linear-4              [-1, 32, 256]         131,328
            Linear-5                [-1, 32, 3]             771
            Linear-6                [-1, 32, 1]             257
================================================================
Total params: 297,348
Trainable params: 297,348
Non-trainable params: 0
----------------------------------------------------------------
Input size (MB): 0.00
Forward/backward pass size (MB): 0.28
Params size (MB): 1.13
Estimated Total Size (MB): 1.42
----------------------------------------------------------------



